assignment1/best_model.pth (torch, 4311 bytes, 5 tensors)

linear1.weight f4 [16, 1]
00000000: 3e4f 51c1 d5f9 e040 5463 ed40 1ea3 2640
00000010: b318 1f40 79f5 29c0 47db c041 7b84 6a41
00000020: c527 1d40 d574 5d41 975b 69c0 51a5 cfc0
00000030: 1148 25c0 3e32 8e40 311b 05c0 abcb 0cc0
-13.081846 7.030497 7.418375 2.603706 2.4858825 -2.6556075 24.107069 14.657344
2.4555523 13.841023 -3.6462152 -6.48893 -2.5825236 4.443633 -2.0797846 -2.199931

linear1.bias f4 [16]
00000000: 47d3 3e3f 4341 5ac1 7950 87c0 df78 efc0
00000010: 722f e6c0 daf8 1241 e8eb 6fc1 16b2 aac1
00000020: 1449 e4c0 2f22 87c0 70b3 8241 f5e1 4941
00000030: cd99 0d41 b093 16c1 0da5 4f41 a49b a141
0.74541134 -13.640933 -4.2285733 -7.483505 -7.1932917 9.185755 -14.995094 -21.336956
-7.1339207 -4.222923 16.337616 12.617665 8.850049 -9.4110565 12.977796 20.200996

linear2.weight f4 [32, 16]
00000000: 7913 1940 81ce a8c0 fe12 74c0 3982 56c0
00000010: 89a8 0ec0 fe57 63bf b754 aac0 7139 d8c1
00000020: ada9 2dc0 43cc fabf b3ef 7abf 3bd0 7341
00000030: 63ed 58be 6cb6 0ac0 8122 cbbc f9e3 45bf
00000040: a45d a33f de56 86c1 a639 06c0 8dae c4c0
00000050: ff98 93c0 7274 833f c7cb c2bf 5eaa 14c1
00000060: 9ce2 9bc0 3db9 d9bf 6347 1e3f aacf 4642
00000070: b5c6 0940 9d1e 1ac1 336d 1d40 cb3d f63c
00000080: 92c3 09bf 928f bbbf a409 07c0 8853 a0c0
00000090: 8ea6 2dc0 69a4 1041 7e8e e6bf 5319 9ebf
000000a0: cd94 3fc0 ada4 02c0 a13a 8e41 1eb2 acbf
000000b0: 7587 2141 b38f 0ac0 77e9 1f41 ba83 8ebf
000000c0: e5f1 16bf 23ee 83bf 7a80 6fbf a20c 41bf
000000d0: 60cb 42bf 8915 c4bf 4402 3fbf 59ea 7cbf
000000e0: 8fcf 09bf 8de7 83bf 80fd ecbf c559 01c0
000000f0: 02bd 09c0 26e0 33bf 4eb9 84bf 1e01 5dbf
00000100: 7313 12bf ebc0 33bf 63a3 3dbf 0ccb c8be
00000110: 20c2 40bf a3c0 a6bf f019 32bf 0fdd 3ebf
00000120: bf0e 63bf 2c71 8cbf a7a9 c3bf 83da f7bf
00000130: e396 00c0 9077 0bbf d765 a8bf 6719 80bf
00000140: a101 15c0 fabc 57bf de4a 3dbf 4b44 2cbf
00000150: f7aa 48bf 70fd 1ec0 f221 66be 017d a8bf
00000160: cbfa 8ebf e919 91bf b479 0ec0 27d4 11c0
00000170: c4f0 0cc0 8846 82bf 0109 08c0 ca9d 55c0
00000180: 3930 f7bf 3a9a 75bf 0bd6 eebf d392 3dbf
00000190: b0b9 67bf c244 3ac0 a438 c8bf c598 8dbf
000001a0: b557 7abf e34e 23c0 83d5 33c0 33bb b9bf
000001b0: cf7c 20c0 7a70 a9bf 7f83 25c0 eeb8 4bc0
000001c0: 4132 2bbf 7ed7 7ebf a2ed 85bf 7939 2bbf
000001d0: cb8d 8bbf b5cb d0bf 36f4 92bf 3bde 7dbf
000001e0: 27c2 65bf 2f86 a7bf 7404 a2bf 9083 d8bf
000001f0: 53ef b9bf 674d 5dbf 904e e8bf b17c 98bf
00000200: 24e0 15bf 2755 613f 83a0 2e3f eb51 ad3f
00000210: 6a61 773f bda7 adbf a2ef 133f 28c1 8a3f
00000220: b4f0 843f a98f 533f a919 73bf f317 2fbf
00000230: 80e1 0fc0 a3c6 a73f 95f0 18c2 806f 22c2
00000240: 8702 53bf f690 aebf 5c32 83bf a31f 70bf
00000250: d238 97bf 0b6f c5bf 8794 77bf cd63 7ebf
00000260: 8fa5 62bf 4c94 64bf e9e9 d9bf 83de d8bf
00000270: 022f f2bf 44e6 8bbf 3dea d3bf 4239 aabf
00000280: f39a 86bf 8d5e 54bf c788 64bf 68da 67bf
00000290: 315a 1bbf 5f5d d7bf 8418 99bf 33d3 30bf
000002a0: 4cb6 16bf d5aa 38bf 73b3 dfbf 273f 08c0
000002b0: e35a f6bf 9b23 60bf 5957 7cbf 8cf6 3ebf
000002c0: 978a b1bf 0f44 9ebf 8309 7cbf f096 2fbf
000002d0: f3b4 7abf 0033 46c0 2a73 41bf 103b 88bf
000002e0: da7e 5cbf d6e6 c8bf afd7 3ec0 7f59 24c0
000002f0: 1b40 28c0 c82b 8dbf 2f60 34c0 5299 31c0
00000300: 6878 54bf f5ed 85bf 16c2 92bf 84e7 83bf
00000310: b06d 74bf 94a9 b8bf e3e9 98bf b055 5dbf
00000320: c170 8cbf 4798 b4bf f897 98bf 52b6 b3bf
00000330: 28af cebf dcfc 81bf 1ccc a1bf 4c7f 73bf
00000340: d656 a13d 857b b0bf 203d f7bf 36d0 8bbf
00000350: 4a72 99bf 37c1 b4bf 42db 03c0 f1b7 abbf
00000360: f1d9 96bf 4457 d6bf f23e 56bf fa83 a0be
00000370: eed2 e4bf 2206 4bbf 7427 e5bf afd6 99c0
00000380: 2bad 05bf b65e 9a3f e8e7 a03f 9c97 6040
00000390: c716 1f40 47aa b5c1 22d1 c23f 2d63 983f
000003a0: d34a 2840 9af6 bb3f 5abd 18c2 2c20 1abf
000003b0: 90b1 c0c1 f35d 1f40 1c75 6cc1 d9a7 12c1
000003c0: d3cf 1cbf 0fce dd3e 6a1e 163f 162b 963f
000003d0: b339 343f cc0a fcbf feef a73e 06c3 f73e
000003e0: 762f 873f c2cb 2a3f 6f66 95bf 2251 bcbe
000003f0: 6b11 66c0 3a96 943f 36be 8ec1 6821 56c1
2.3918135 -5.275208 -3.8136592 -3.3516982 -2.2290366 -0.8880614 -5.322841 -27.028048
-2.7134812 -1.9593586 -0.98022 15.2383375 -0.21184306 -2.1673841 -0.024796726 -0.77300984
1.2762952 -16.792416 -2.0972686 -6.1463075 -4.6124263 1.0269911 -1.5218438 -9.291594
-4.8714123 -1.7009655 0.6182768 49.702797 2.152753 -9.632474 2.45979 0.030058762
-0.5381404 -1.4653189 -2.1099634 -5.0101967 -2.7132907 9.040139 -1.8012235 -1.2351478
-2.993457 -2.041301 17.778627 -1.3491857 10.095571 -2.1650207 9.994498 -1.113395
-0.5896285 -1.0307049 -0.93555415 -0.754099 -0.76091576 -1.5319072 -0.7461283 -0.98795086
-0.53832334 -1.0305039 -1.8514862 -2.021104 -2.1521611 -0.702639 -1.036905 -0.8632983
-0.5706093 -0.70216244 -0.74077433 -0.39217412 -0.7529621 -1.3027538 -0.6957083 -0.7455606
-0.88694376 -1.0972037 -1.5286149 -1.936356 -2.0092094 -0.5447931 -1.3156079 -1.0007752
-2.3282244 -0.8427273 -0.73942363 -0.67291707 -0.7838587 -2.4842186 -0.22473887 -1.3163148
-1.1170286 -1.1336032 -2.2261782 -2.2785738 -2.2021952 -1.0177774 -2.1255496 -3.3377557
-1.9311591 -0.95938456 -1.8659071 -0.7405216 -0.9051771 -2.9104466 -1.5642285 -1.1062247
-0.9779008 -2.5516899 -2.8099067 -1.4510254 -2.5076177 -1.323745 -2.586151 -3.1831622
-0.66873556 -0.99547565 -1.0463145 -0.6688457 -1.0902647 -1.6312166 -1.1480777 -0.9916722
-0.8974938 -1.3087825 -1.2657609 -1.691515 -1.4526161 -0.8644623 -1.8148975 -1.1913053
-0.58545136 0.8802056 0.6821367 1.3540624 0.9663302 -1.3566815 0.57787526 1.0840197
1.0385957 0.82641083 -0.9496103 -0.6839592 -2.2481384 1.3107494 -38.234943 -40.608887
-0.8242573 -1.3637989 -1.0249743 -0.93798274 -1.1814215 -1.5424513 -0.9671101 -0.99371034
-0.8853387 -0.89288783 -1.7024509 -1.6942905 -1.8920596 -1.0929646 -1.6555859 -1.3298724
-1.0516037 -0.82956773 -0.89271206 -0.90567636 -0.60684496 -1.682537 -1.1960607 -0.69072264
-0.5887191 -0.7213567 -1.7476639 -2.1288545 -1.9246486 -0.8755433 -0.9857078 -0.7459495
-1.3870419 -1.236452 -0.98452014 -0.6858969 -0.97932357 -3.0968628 -0.7556635 -1.0643024
-0.8613106 -1.5695446 -2.9819143 -2.5679624 -2.6289127 -1.1028986 -2.8183706 -2.774983
-0.82996225 -1.0463244 -1.146548 -1.0305028 -0.9547987 -1.4426751 -1.1946377 -0.86458874
-1.097191 -1.4108971 -1.1921377 -1.4040015 -1.6147203 -1.0155292 -1.2640414 -0.95116115
0.07877891 -1.3787695 -1.9315529 -1.0922916 -1.1988003 -1.4121464 -2.0602574 -1.341551
-1.178526 -1.6745381 -0.83689797 -0.3135069 -1.7876871 -0.7930623 -1.7902665 -4.8074565
-0.5221736 1.2060153 1.2570772 3.5092535 2.4857652 -22.708143 1.5220072 1.1905266
2.629567 1.4684632 -38.184914 -0.6020534 -24.0867 2.4901092 -14.778591 -9.165978
-0.61254615 0.43321273 0.5864016 1.1731899 0.7040054 -1.9690795 0.32800287 0.4839098
1.0561359 0.6671716 -1.1671885 -0.3678065 -3.594813 1.1608346 -17.842876 -13.383156

linear2.bias f4 [32]
00000000: e1ae 4ebf d3b5 39bf e399 c9bf 02e1 24bf
00000010: c22d 37bf 559b 22c0 5c23 43c0 a317 b5bf
00000020: bbda 293f 48f4 81bf 7956 61bf 4633 f0bf
00000030: 900f 96bf 547f 8ebf 8b62 9f3f 3a1f f33e
00000040: 045f 453e 3952 97bf 4b09 cfbf a88d 06c0
00000050: 6410 5abf 26fa 7fbf 41a7 78bf 6319 b4bf
00000060: 970e 8bbf a6a6 debe 491b 79bf c394 8cbf
00000070: 7e73 a2bf abb7 9ebf c565 b1bf 2168 133f
-0.80735594 -0.72543067 -1.5750087 -0.64405835 -0.71554196 -2.5407307 -3.0490332 -1.4147838
0.6634938 -1.0152674 -0.8802257 -1.8765647 -1.1723499 -1.1132607 1.2451948 0.4748476
0.19274527 -1.1821967 -1.6174711 -2.102396 -0.8518126 -0.9999107 -0.9713021 -1.4070247
-1.0863827 -0.43486518 -0.9730726 -1.0982898 -1.2691495 -1.2399801 -1.3859183 0.57580763

linear3.weight f4 [1, 32]
00000000: 638a 2a40 ddf9 bfbf 416f b63f e25d c63d
00000010: 02e9 a33d 7d47 3c3f 855c 733f f641 173e
00000020: 8322 ba3f 8ffa 173e ef1b f03d b489 9e3e
00000030: 2971 f33c 9c6e 0b3d e0e7 3ac0 534c 10c0
00000040: d0cc aabf 2f40 d53d c200 6c3e 4a8c 033f
00000050: 767c 433e 2dca acbf 9d3c 0b3e 6555 0b3e
00000060: f7e4 523d 4129 c5c0 ff82 073e 4949 6e3d
00000070: 6c5e 81be d4d7 413e a9d9 4f3e 9a11 193f
2.6646965 -1.4998127 1.4252702 0.096858755 0.08003427 0.7354658 0.9506305 0.14771256
1.4541782 0.14841674 0.11724078 0.30964434 0.029717045 0.034041032 -2.9204025 -2.2546585
-1.3343754 0.10412633 0.23047164 0.5138594 0.19090447 -1.3499199 0.13597341 0.13606794
0.05148789 -6.161286 0.13233565 0.05817536 -0.2526735 0.18929988 0.20297875 0.5979248
