assignment1/best_model.pth (torch, 4311 bytes, 5 tensors)

linear1.weight f4 [16, 1]
-1.5024135 2.6259544 -2.917807 5.3655496 -7.1524506 -8.254897 -1.5717685 -1.4981496
9.495069 -11.359634 -3.0361807 10.196766 3.5790675 -1.4523416 2.6101727 5.9495964
00000000: 164f c0bf a30f 2840 5abd 3ac0 95b2 ab40
00000010: e0e0 e4c0 0f14 04c1 b62f c9bf 5ec3 bfbf
00000020: cdeb 1741 10c1 35c1 c950 42c0 f425 2341
00000030: 710f 6540 54e6 b9bf 120d 2740 1863 be40

linear1.bias f4 [16]
12.25871 -6.31581 13.305037 -10.836722 13.429966 0.77107084 13.242176 12.246651
-14.712788 4.437733 11.922625 -15.369281 -8.262202 11.862606 -16.191397 -11.702835
00000000: ad23 4441 1e1b cac0 6ee1 5441 3763 2dc1
00000010: 24e1 5641 e664 453f f4df 5341 48f2 4341
00000020: 9467 6bc1 e901 8e40 12c3 3e41 93e8 75c1
00000030: fb31 04c1 3ccd 3d41 fb87 81c1 d03e 3bc1

linear2.weight f4 [32, 16]
-3.0391405 -3.0953927 -2.3394837 -3.101323 -2.876678 -2.2250664 -2.4957762 -2.770329
-3.0353224 -1.2222062 -1.4139996 -3.1389084 -3.4169884 -2.2908232 -2.32073 -3.2413301
-2.9997277 -3.1367304 -3.1650703 -3.4842675 0.25727794 -2.2196562 -2.078064 -2.6002264
-3.5465775 -1.1294883 -1.1228021 -3.4352212 -3.5097213 -1.8663615 -1.9286425 -3.4411435
2.5339012 -0.41769373 -12.912869 0.17868187 -2.1170835 -1.9959967 2.0999172 3.0669003
-0.29072413 -1.7943786 -18.403093 -0.37368315 0.2813943 7.903499 -17.77473 -0.19508658
-0.6856222 -0.5440417 -1.3336835 -1.135378 -1.4511406 -1.9806043 -0.45563704 -0.6909008
-1.0499481 -1.2253009 -0.6213084 -0.99480385 -1.0224911 -1.2780977 -0.5036162 -1.0313132
-0.39007193 -3.5063572 -0.95970017 -10.447598 11.93904 -2.2498417 0.04775315 -0.29495192
-15.564482 -16.366055 -0.94822645 -16.1598 -5.381521 1.3359474 -0.60967314 -11.394956
-1.1922022 -1.0978163 -2.5729413 -1.6579595 -1.1218987 -2.825219 -0.6922063 -0.95995754
-1.5621059 -2.3573964 -1.2246153 -1.6685412 -1.6493084 -0.37730262 -0.5241282 -1.5115352
-2.0898216 -2.4776073 -6.2148314 -2.5625339 -2.7693043 -2.21138 -0.6102451 -1.4232807
-2.6998026 -1.5423149 -3.9823582 -2.7115984 -2.6162877 -0.7454741 -1.3512105 -2.7183988
-1.7425807 -2.4142742 -5.608929 -2.4341507 -0.3122278 -1.1625313 -1.5219607 -1.5954175
-2.365831 -1.0400542 -2.4949005 -2.3948503 -2.1471481 -1.0695624 -0.7701121 -2.1706626
-1.2644572 -0.7510609 -2.4683168 -0.95389885 -1.4076276 -2.9593518 -0.8591192 -0.96605486
-1.1866649 -2.3646295 -1.1480638 -1.2313187 -1.4975961 -1.2423023 0.6351424 -1.4238853
-2.4675212 0.027375855 -1.954322 -0.84381175 16.155584 -2.4796412 -2.7820907 -2.888746
-8.018757 45.238956 -1.8520418 -9.353257 0.16928375 -1.3542693 -0.8975746 -2.4788988
-3.01099 -2.4101024 -5.9978237 -2.8894234 -3.4027557 -2.9413872 -2.0136762 -2.4462745
-2.7722542 -1.9682702 -3.8611324 -2.9578032 -3.2060268 -2.1671665 -1.7503489 -3.1967788
2.1219323 -0.8010438 -31.343966 -0.8091381 -2.1615076 -0.80766165 2.131916 2.8071637
-1.1674205 -0.3718916 -25.885965 -1.1409327 -0.8468792 6.2950506 -14.547006 -0.7888219
-2.3600717 -2.6742005 -6.174275 -2.4344852 -0.31780124 -0.90425086 -2.0288374 -2.0649095
-2.4947956 -0.8182217 -2.666501 -2.098053 -2.5879912 -1.7431916 -1.1950866 -2.3686726
-0.65823597 -1.2376785 -0.749086 -1.1687406 -2.6535695 -0.17679372 -1.3285525 -0.96813154
-1.0561211 -0.5291501 -0.8658967 -0.9636728 -1.3017346 -3.0528178 -1.0540886 -1.2560824
1.5122446 -5.3927145 3.4320545 -13.377501 60.56927 8.373602 1.8413365 1.8410133
-10.883563 7.014372 3.1147327 -10.284326 -8.222432 4.2026134 -0.9014257 -14.760378
-16.654009 5.233604 -2.7247922 4.2547994 -1.3931116 -3.548714 -21.570478 -17.917942
4.1099977 -1.4647479 -3.019925 3.8720782 4.5859423 -20.780718 11.712425 4.6495976
00000000: 4781 42c0 ea1a 46c0 1aba 15c0 137c 46c0
00000010: 7e1b 38c0 7d67 0ec0 ccba 1fc0 124d 31c0
00000020: b942 42c0 4171 9cbf f0fd b4bf e0e3 48c0
00000030: f0af 5ac0 d99c 12c0 d786 14c0 f471 4fc0
00000040: 8afb 3fc0 31c0 48c0 8390 4ac0 3dfe 5ec0
00000050: efb9 833e d90e 0ec0 00ff 04c0 1c6a 26c0
00000060: 20fb 62c0 1393 90bf fbb7 8fbf aada 5bc0
00000070: 469f 60c0 efe4 eebf c2dd f6bf b23b 5cc0
00000080: 702b 2240 f4db d5be 1d9b 4ec1 61f8 363e
00000090: 4c7e 07c0 d27c ffbf 0b65 0640 1848 4440
000000a0: cbd9 94be 33ae e5bf 8939 93c1 6653 bfbe
000000b0: ea12 903e 77e9 fc40 a632 8ec1 c7c4 47be
000000c0: f084 2fbf 5146 0bbf 24b6 aabf 1154 91bf
000000d0: fabe b9bf 7184 fdbf 4249 e9be e0de 30bf
000000e0: b364 86bf a9d6 9cbf 110e 1fbf 77ab 7ebf
000000f0: fde0 82bf b598 a3bf feec 00bf 1202 84bf
00000100: 82b7 c7be 2868 60c0 e9ae 75bf 5d29 27c1
00000110: 4f06 3f41 68fd 0fc0 cf98 433d f003 97be
00000120: 1e08 79c1 aeed 82c1 f8be 72bf 4547 81c1
00000130: 6c35 acc0 5300 ab3f 8a13 1cbf bd51 36c1
00000140: 159a 98bf 3f85 8cbf 12ab 24c0 0438 d4bf
00000150: 609a 8fbf 63d0 34c0 6f34 31bf c7bf 75bf
00000160: 16f3 c7bf 95df 16c0 32c0 9cbf c292 d5bf
00000170: 8a1c d3bf cf2d c1be 442d 06bf fc79 c1bf
00000180: a3bf 05c0 1e91 1ec0 e6df c6c0 8e00 24c0
00000190: 483c 31c0 4087 0dc0 0639 1cbf 102e b6bf
000001a0: 91c9 2cc0 936a c5bf f5de 7ec0 d48a 2dc0
000001b0: 4271 27c0 64d7 3ebf 77f4 acbf 3ffa 2dc0
000001c0: e20c dfbf 7883 1ac0 597c b3c0 20c9 1bc0
000001d0: 52dc 9fbe d3cd 94bf 9ccf c2bf a436 ccbf
000001e0: c669 17c0 7f20 85bf 73ac 1fc0 3a45 19c0
000001f0: e06a 09c0 6ce7 88bf 1126 45bf 23ec 0ac0
00000200: bcd9 a1bf 8745 40bf e7f8 1dc0 b732 74bf
00000210: 242d b4bf 0566 3dc0 3cef 5bbf 5f4f 77bf
00000220: a3e4 97bf 1756 17c0 c1f3 92bf da9b 9dbf
00000230: 3bb1 bfbf c303 9fbf b198 223f e041 b6bf
00000240: deeb 1dc0 5443 e03c 3927 fabf 0c04 58bf
00000250: a33e 8141 71b2 1ec0 c60d 32c0 37e1 38c0
00000260: d44c 00c1 b1f4 3442 b50f edbf f1a6 15c1
00000270: b858 2d3e b258 adbf 73c7 65bf 47a6 1ec0
00000280: 0fb4 40c0 1e3f 1ac0 2cee bfc0 50ec 38c0
00000290: c0c6 59c0 b03f 3cc0 12e0 00c0 c38f 1cc0
000002a0: 9d6c 31c0 47f0 fbbf cb1c 77c0 a64c 3dc0
000002b0: 8b2f 4dc0 dbb2 0ac0 6f0b e0bf 0698 4cc0
000002c0: bdcd 0740 3511 4dbf 71c0 fac1 ad23 4fbf
000002d0: 2456 0ac0 eac2 4ebf 5071 0840 92a8 3340
000002e0: 096e 95bf 9368 bebe 7516 cfc1 150a 92bf
000002f0: 13cd 58bf 0e71 c940 89c0 68c1 3bf0 49bf
00000300: 6a0b 17c0 1a26 2bc0 a993 c5c0 9bce 1bc0
00000310: d8b6 a2be fc7c 67bf 79d8 01c0 7a27 04c0
00000320: bbaa 1fc0 fa76 51bf f4a7 2ac0 8046 06c0
00000330: a6a1 25c0 e720 dfbf 99f8 98bf 5598 17c0
00000340: 2782 28bf 406c 9ebf 1ac4 3fbf 4b99 95bf
00000350: 15d4 29c0 6a09 35be 020e aabf 78d7 77bf
00000360: fa2e 87bf 6276 07bf 68ab 5dbf 43b3 76bf
00000370: 3d9f a6bf 5e61 43c0 60ec 86bf 4fc7 a0bf
00000380: 3b91 c13f 1e91 acc0 c8a6 5b40 3e0a 56c1
00000390: ef46 7242 46fa 0541 eab0 eb3f 53a6 eb3f
000003a0: 1323 2ec1 bc75 e040 c857 4740 998c 24c1
000003b0: 158f 03c1 cf7b 8640 d6c3 66bf 822a 6cc1
000003c0: 693b 85c1 af79 a740 ff62 2ec0 5127 8840
000003d0: 7b51 b2bf 211e 63c0 5790 acc1 f257 8fc1
000003e0: 1a85 8340 dc7c bbbf 7446 41c0 21d0 7740
000003f0: 0ac0 9240 e93e a6c1 1866 3b41 81c9 9440

linear2.bias f4 [32]
-3.2841735 -3.6450198 -0.49007052 -1.314149 -0.15579197 -1.8042341 -2.9910731 -2.2785196
-1.4279525 -1.8465412 -3.03216 -1.2457515 -2.5025375 -1.1327748 0.7063788 3.8180017
-1.8476816 0.14952517 -1.3057522 -1.8742439 -2.0945082 -1.32291 -3.2184494 -1.4022654
-1.74121 -1.173581 -1.2296648 -3.028635 0.9475101 -1.2883606 -0.9715861 -2.8993464
00000000: e62f 52c0 0148 69c0 86ea fabe 0936 a8bf
00000010: ee87 1fbe 25f1 e6bf be6d 3fc0 44d3 11c0
00000020: 26c7 b6bf 765b ecbf e90e 42c0 c974 9fbf
00000030: 9329 20c0 c4fe 90bf 3ed5 343f 245a 7440
00000040: d580 ecbf 201d 193e e322 a7bf 39e7 efbf
00000050: 6c0c 06c0 1d55 a9bf 13fb 4dc0 6f7d b3bf
00000060: f8df debf e737 96bf a865 9dbf 28d5 41c0
00000070: 0690 723f 00e9 a4bf deb9 78bf e48e 39c0

linear3.weight f4 [1, 32]
-0.025128037 1.0757674 -1.3212222 -0.16400059 -0.7019975 -0.27983487 2.0473835 0.35511228
-0.19303821 3.3392062 1.213185 2.0871453 0.38050607 0.15400101 -1.3678643 1.4606115
-0.06815424 -1.8778237 -0.06303209 -0.21782558 -0.20219174 0.21109171 2.1958263 0.10844363
0.017119024 -0.039595943 0.19005962 0.5731378 1.4281029 0.041157626 -1.412531 -1.3272954
00000000: 50d9 cdbc bfb2 893f cf1d a9bf c5ef 27be
00000010: 1cb6 33bf 8446 8fbe 5508 0340 47d1 b53e
00000020: cfab 45be 8eb5 5540 a549 9b3f ca93 0540
00000030: b1d1 c23e 71b2 1d3e 2d16 afbf 51f5 ba3f
00000040: 7394 8bbd 875c f0bf f816 81bd ab0d 5fbe
00000050: 5a0b 4fbe 6d28 583e 6b88 0c40 b217 de3d
00000060: 323d 8c3c 5b2f 22bd fd9e 423e 29b9 123f
00000070: 13cc b63f e694 283d d1cd b4bf d1e4 a9bf
